Day03/pong_model_v1.0.pth (torch, 7149 bytes, 4 tensors)

fc1.weight f4 [128, 5]
0	0x3c83fda6	0.01611216
1	0x3e829fe4	0.25512612
2	0xbf4a4b14	-0.7902081
3	0xbe248ccc	-0.16069335
4	0xbe71f30c	-0.23627871
5	0xbe2876f2	-0.16451624
6	0x3ddcb9b0	0.107776046
7	0xbe9fee4e	-0.312365
8	0x3e333e04	0.17504126
9	0x3db1ab37	0.08675235
10	0xbe883804	-0.26605237
11	0xbe33f01b	-0.17572062
12	0xbeac395a	-0.33637506
13	0xbe226dda	-0.15862218
14	0x3f4301f0	0.7617483
15	0xc00b632c	-2.177928
16	0x3f645424	0.8919089
17	0x400a6b60	2.1628036
18	0xbfbf80aa	-1.496114
19	0xc02e593d	-2.7241967
20	0x3f1cc69f	0.6124057
21	0xbdbe9e4e	-0.09307538
22	0xbe9fe30c	-0.3122791
23	0x41078df8	8.47216
24	0x3fae1dcc	1.3602843
25	0xbe17dade	-0.14829585
26	0xbea16849	-0.31524876
27	0xbe12e86d	-0.14346476
28	0x3ee453cf	0.4459519
29	0x3e5e550e	0.21712133
30	0xbe559b64	-0.20860058
31	0x3e2dd37c	0.16975206
32	0xbe9fbeda	-0.31200296
33	0xbe64bbd0	-0.2233727
34	0x3e6707f5	0.22561629
35	0xbf2bfee8	-0.6718583
36	0xbe255680	-0.16146278
37	0x3f1e9585	0.619469
38	0xc1117598	-9.091209
39	0xc10aba83	-8.670535
40	0xbe86c66e	-0.26323265
41	0xbed6b9af	-0.4193854
42	0x3d6d56a4	0.057943955
43	0x3e50e264	0.20398861
44	0xbe3fd9fc	-0.18735498
45	0x3c0918ed	0.008367759
46	0xbf252e39	-0.64523655
47	0xbd472b1a	-0.04862509
48	0x40ee4a53	7.446573
49	0xc12b6162	-10.711275
50	0xbf114163	-0.567404
51	0x3db33880	0.08751011
52	0xbedebe69	-0.43504646
53	0xbd65271e	-0.05594551
54	0x3e4d486a	0.20047155
55	0xbedf4ac4	-0.4361173
56	0xbe2ff1a9	-0.1718203
57	0xbdde66bc	-0.10859439
58	0x3e166706	0.14687738
59	0x3ec01b11	0.3752065
60	0x3e070f61	0.1318946
61	0xbf0b75d9	-0.54476696
62	0xbe7fa9ab	-0.24967067
63	0xbe98dadc	-0.29854476
64	0x3d05f9c4	0.0327089
65	0xbefa3078	-0.48865104
66	0xbe84bd4d	-0.25925675
67	0xbe83a924	-0.25714982
68	0x3f0d9198	0.55300283
69	0x3eeca78c	0.46221578
70	0x3f444870	0.7667303
71	0xbf2cbd03	-0.6747591
72	0xbf85dbac	-1.0457664
73	0x3f541378	0.82842207
74	0x40ddf85f	6.9365687
75	0xbe080bfc	-0.13285822
76	0xbe28c98f	-0.16483139
77	0xbdfc4da6	-0.12319498
78	0xbf08c471	-0.53424746
79	0xbea1688b	-0.31525072
80	0xbedd7269	-0.4325135
81	0xbe9e71b6	-0.3094613
82	0xbe86800f	-0.26269576
83	0xbe91b830	-0.28460836
84	0xbeab9e90	-0.3351941
85	0xbff74bd9	-1.9320022
86	0xc0984b5a	-4.759198
87	0xbeccb6ca	-0.39983207
88	0xc060f597	-3.5149896
89	0x3f08d310	0.53447056
90	0xbcd35a55	-0.02579991
91	0xbef11b20	-0.47091007
92	0x3d5a2ee9	0.053267393
93	0xbc9dd01c	-0.019264273
94	0x3e7b0ca1	0.24516536
95	0xbc9270f7	-0.017876131
96	0x3ac77769	0.0015218082
97	0xbe84aec5	-0.2591459
98	0x3f4cc07f	0.79981226
99	0x3f54f40a	0.83184874
100	0xbd7672c4	-0.060168043
101	0xbf5f0128	-0.8711114
102	0x3fe9e2f3	1.8272384
103	0xc082e662	-4.090623
104	0x402c35c6	2.690782
105	0xbf22c89a	-0.63587344
106	0xbf631528	-0.88704157
107	0xbf19e1a3	-0.6010992
108	0xbfcb952f	-1.5904902
109	0x3faf822b	1.3711599
110	0xbec85728	-0.39128995
111	0x3ff88ec5	1.941857
112	0x3ea5270f	0.32256362
113	0x409d43c1	4.9145207
114	0x40a764da	5.231061
115	0xbe150f28	-0.14556563
116	0xbecc88a9	-0.39948013
117	0xbe79db5e	-0.24400088
118	0xbeb0258f	-0.34403655
119	0xbdbdf5a4	-0.09275368
120	0xbd9e2fe4	-0.07723978
121	0xbd4db5b1	-0.050222103
122	0x3e8f5241	0.27992442
123	0x3e083b28	0.13303816
124	0x3e091d4e	0.13390085
125	0xbf8ecce4	-1.1156278
126	0xbef54ffe	-0.47912592
127	0xc0926f7e	-4.57611
128	0x40c5ce9f	6.1814723
129	0x40827851	4.077187
130	0x3dab53bb	0.0836558
131	0x3e550e98	0.20806348
132	0x3dc07e49	0.09399087
133	0x3e1e2eed	0.15447588
134	0x3c7e9d5e	0.015540449
135	0x3f626732	0.88438714
136	0x3fcfc73c	1.6232677
137	0xbf57fdbb	-0.84371537
138	0x3de367be	0.111037716
139	0x40d99435	6.7993417
140	0x3f8fb68e	1.1227586
141	0x3f1d9387	0.61553234
142	0xbf8aabb5	-1.0833651
143	0x40afd414	5.4946384
144	0x40791b89	3.8923056
145	0xbff12df2	-1.8842146
146	0x3fa32f12	1.274874
147	0x3fe644a7	1.7989701
148	0xc0c80743	-6.2508864
149	0xbe172720	-0.14761019
150	0xbf85ed8e	-1.0463121
151	0xbfe4e30a	-1.7881787
152	0xbe4b85ee	-0.19875309
153	0xc07e6f31	-3.9755366
154	0xc0cc7ddd	-6.390364
155	0xbe17b48a	-0.14814964
156	0x3e452696	0.19253
157	0xbf531e10	-0.82467747
158	0xbf6f31a9	-0.9343515
159	0xbf084d6f	-0.53243154
160	0xbe110ab2	-0.14164236
161	0xbeeb08d2	-0.45905167
162	0xbed93f0d	-0.42430916
163	0x3daf4d39	0.08559651
164	0xbea801e6	-0.32813948
165	0xbea64010	-0.3247075
166	0xbe20db8c	-0.1570875
167	0xbe4b49d3	-0.1985238
168	0xbe610afa	-0.21976843
169	0xbeaf99da	-0.34297067
170	0xbecdee3b	-0.40220818
171	0x3c604600	0.013688564
172	0xbef0b0a8	-0.47009778
173	0xbf3ddf94	-0.7416928
174	0x3f780e8f	0.96897215
175	0xbfd711c3	-1.6802295
176	0xbf377d1f	-0.71675295
177	0xbfe11f3a	-1.7587655
178	0x3d293cb8	0.04131767
179	0x40e01903	7.003053
180	0x3f46609b	0.7749116
181	0xbf32bf6f	-0.69823354
182	0xbc5d2cd5	-0.013499458
183	0x403ceb01	2.9518435
184	0xbff7b8a8	-1.9353228
185	0x3fe9e6c5	1.827355
186	0x400fa843	2.2446449
187	0xc000f1ed	-2.014766
188	0x401c598d	2.4429657
189	0xbf4ce1af	-0.80031866
190	0x3d591535	0.05299874
191	0x3dec952c	0.1155189
192	0xbe20204e	-0.15637323
193	0xbec877fb	-0.39154038
194	0xbf2d4b98	-0.6769347
195	0xbf0f86d3	-0.560651
196	0x3df06f8a	0.117400244
197	0xbeefb332	-0.46816403
198	0x3f29f350	0.6638689
199	0x3f8204e7	1.0157746
200	0xbeb55d00	-0.35422516
201	0xbe976c7a	-0.2957495
202	0xbea9f365	-0.33193508
203	0x3f328fb7	0.6975054
204	0xbe02f34b	-0.12788121
205	0x3e0eb72c	0.13937062
206	0xbec8150b	-0.39078555
207	0xbde8dca6	-0.1137021
208	0x3e8a9564	0.270671
209	0x3e819f57	0.2531688
210	0xbf02f2b2	-0.51151574
211	0x3cb26c21	0.021780076
212	0x3ec8517b	0.39124665
213	0xc0d61a5d	-6.690718
214	0x40475f4d	3.1151917
215	0xbee5721e	-0.44813627
216	0xbf227041	-0.63452536
217	0xbf0cb091	-0.5495692
218	0xbda09d40	-0.07842493
219	0xbf173ec7	-0.59080166
220	0xbdb35d41	-0.08758021
221	0x3de4f4f5	0.11179534
222	0xbf2b8293	-0.66996115
223	0xbf868bd5	-1.0511423
224	0xbf252269	-0.6450563
225	0xbeceaba0	-0.40365314
226	0xbedcd94e	-0.4313454
227	0x3e95eb2d	0.29280987
228	0x3e6a0d5d	0.2285666
229	0x3e170ad8	0.1475023
230	0x3e54bef3	0.20775966
231	0xbf04146e	-0.51593673
232	0x3e799cfc	0.24376291
233	0x3d791c52	0.060818024
234	0xbe2dfda1	-0.16991283
235	0xbe86c13c	-0.263193
236	0x3e69a406	0.22816476
237	0xbda7e046	-0.08197074
238	0xbe8995a2	-0.26871973
239	0x3f3eaaab	0.7447917
240	0xbf2a5ffb	-0.66552705
241	0xbe9b69ae	-0.30354065
242	0xbe23c905	-0.15994652
243	0x3eca6606	0.39530963
244	0xbd9a5c71	-0.07537163
245	0x3db7b43a	0.08969922
246	0xbe2bb504	-0.1676827
247	0xbea8ea65	-0.3299133
248	0x3e0a709a	0.13519517
249	0x3e228c95	0.1587394
250	0xbe14fc82	-0.14549449
251	0xbeb898d8	-0.3605411
252	0xbde81746	-0.11332564
253	0x3e74a88f	0.23892425
254	0x3caac20a	0.020844478
255	0xc0653464	-3.5813227

fc1.bias f4 [128]
0	0xbe91e844	-0.28497517
1	0xbe2cb741	-0.16866781
2	0xbd820836	-0.06349222
3	0xbfa5e20a	-1.2959607
4	0xbe804118	-0.25049663
5	0xbe44d175	-0.19220527
6	0xbed41b11	-0.414269
7	0x3e946369	0.28982094
8	0xbe651134	-0.22369844
9	0x3f54b1eb	0.8308398
10	0xbec4dce2	-0.3844977
11	0xbe6fefd6	-0.23431334
12	0xbe996021	-0.29956153
13	0xbe714fa7	-0.23565541
14	0xbf688bba	-0.90838206
15	0xbed788a4	-0.42096436
16	0xbdb69fe8	-0.089172184
17	0xbe696763	-0.22793345
18	0xbec6d016	-0.38830632
19	0xbf5ea883	-0.8697588
20	0xc047c6ec	-3.1215162
21	0xbf05cfe4	-0.5227034
22	0xbffbc350	-1.966898
23	0xbe809bfc	-0.25119007
24	0xbecff760	-0.4061842
25	0xbf83c066	-1.029309
26	0xbec7a317	-0.38991615
27	0xbfb4f37d	-1.4136807
28	0xbf202088	-0.6254964
29	0xbfcafbfa	-1.5858147
30	0xbf5619a5	-0.8363288
31	0xbe735a32	-0.23764876
32	0xbe26b1ea	-0.16278806
33	0xbe19b119	-0.15008964
34	0xbeb3929f	-0.350728
35	0xbfdcc202	-1.7246706
36	0xbfab6f9b	-1.3393434
37	0xc024b868	-2.5737553
38	0xbf1d232a	-0.6138178
39	0xbf1927e5	-0.598265
40	0xbe813598	-0.252362
41	0xbeb04618	-0.34428477
42	0xbd950e52	-0.07278122
43	0x3db240d0	0.08703768
44	0xbef2c8dd	-0.47418872
45	0xbed4b5fb	-0.4154509
46	0xbf06a1a7	-0.5259041
47	0xbef948e2	-0.48688418
48	0x3753d32c	1.2625747e-05
49	0xbe3bafae	-0.18328735
50	0xbe592a0a	-0.21207443
51	0xbf4a7fa1	-0.79100996
52	0x3e4ab604	0.19795996
53	0xbe164326	-0.14674053
54	0xbe29c2b9	-0.16578187
55	0xbecc0367	-0.39846346
56	0x3f1619e2	0.58633244
57	0xbda1b315	-0.07895485
58	0xbebd45bd	-0.3696727
59	0xbec3a7da	-0.38213998
60	0xbf0ced7c	-0.5504987
61	0xbe8e3c67	-0.27780458
62	0xbe942f25	-0.28942218
63	0xbecca32e	-0.39968246
64	0xbe41680e	-0.1888735
65	0xbe99a8bd	-0.3001155
66	0xbe3d6893	-0.18496923
67	0xc038d72b	-2.8881328
68	0xbe9bddb6	-0.3044259
69	0xbe0ef25c	-0.1395964
70	0xbd9990ac	-0.07498297
71	0xbe2a206c	-0.1661393
72	0xbe8b6f7c	-0.27233493
73	0xbe5cf2c7	-0.21576987
74	0xbed83014	-0.4222418
75	0xbdd80c17	-0.10549181
76	0xbe80198b	-0.25019488
77	0xbee598ec	-0.44843233
78	0x3dd91793	0.106001996
79	0xbe9f38b3	-0.31097946
80	0xbe432698	-0.19057691
81	0x3e2cfac7	0.16892539
82	0xbef9a181	-0.4875603
83	0xbe9835f8	-0.29728675
84	0xc0200f18	-2.5009212
85	0xbf913552	-1.1344397
86	0xbfbe08bc	-1.4846416
87	0xbf404fc6	-0.75121725
88	0xbd5bb96c	-0.05364363
89	0xbe8aa3df	-0.2707815
90	0xbf06b5e3	-0.5262129
91	0xbeacca1f	-0.33747956
92	0xbe4c9961	-0.19980384
93	0xbfc76a86	-1.5579383
94	0xbeaf334e	-0.3421883
95	0xbe7233ae	-0.23652527
96	0xbf3c0781	-0.7344895
97	0xbfc9837d	-1.5743252
98	0xbe355e06	-0.17711648
99	0xbf06f812	-0.52722275
100	0xbf70368a	-0.9383322
101	0xbe18ec73	-0.14933948
102	0xbec3a6ab	-0.38213095
103	0xbf179171	-0.592063
104	0xbe02768f	-0.12740539
105	0xbf34e15a	-0.7065636
106	0xbf15aeb2	-0.5846969
107	0xbec94a1f	-0.39314362
108	0xbeb46bcc	-0.35238492
109	0xbf1a9d55	-0.6039632
110	0xbe867f45	-0.26268974
111	0xbf02e7ba	-0.51134837
112	0xbf02fbef	-0.5116567
113	0xbf8048c2	-1.0022204
114	0xbfacd417	-1.3502225
115	0xbeac9fa8	-0.33715558
116	0xbe356551	-0.1771443
117	0xbe9ea99c	-0.30988777
118	0xbeb0835f	-0.34475228
119	0xbe23f124	-0.16009957
120	0xbf23881b	-0.63879555
121	0xbf97081c	-1.179935
122	0xbeeeecb2	-0.4666496
123	0xbf9e4ffb	-1.2368158
124	0xbec60602	-0.3867646
125	0xbecfc4e5	-0.40579906
126	0xbdd41009	-0.10354621
127	0x3f1559f6	0.58340394

fc3.weight f4 [3, 128]
0	0x3ddc9381	0.10770322
1	0xbd1b4ddd	-0.037916053
2	0x3d1e62cd	0.038668443
3	0x3ec49df3	0.38401756
4	0x3f0d71f8	0.5525203
5	0x3d910451	0.070809014
6	0xbd58a958	-0.052895874
7	0xbf8387d6	-1.0275829
8	0xbc8097e6	-0.01569743
9	0xbf91e78c	-1.1398787
10	0xbd054f01	-0.032546047
11	0x3d7941ef	0.060853895
12	0x3e1889de	0.14896342
13	0xbdae1350	-0.08499777
14	0x3f698beb	0.9122912
15	0x3e0deb51	0.13859297
16	0xbdb6df51	-0.08929313
17	0x40095aae	2.1461596
18	0x3db655c2	0.08903076
19	0xbce7fe33	-0.028319454
20	0xbcaa1986	-0.020764124
21	0xbf1bb69a	-0.608255
22	0xbf3eb8ff	-0.7450103
23	0xbd8e634e	-0.069525346
24	0xbcc09bd1	-0.023511799
25	0xc01d907d	-2.4619439
26	0x3d9db319	0.07700176
27	0x3f1a28ab	0.60218304
28	0xbf0ad124	-0.54225373
29	0x3f8b1827	1.0866746
30	0x3f572a85	0.84049255
31	0x3d127279	0.0357537
32	0xbccb0ded	-0.024786914
33	0xbc9adbd3	-0.018903648
34	0xbdf2ef58	-0.118620574
35	0x3fa5116f	1.2895945
36	0xbf82f025	-1.0229536
37	0x4085e76e	4.1845007
38	0xbdbe6a37	-0.092976026
39	0xbc5325b8	-0.012887411
40	0xbdd53524	-0.104105264
41	0xbd50ffbb	-0.051025134
42	0xbf3cffad	-0.7382763
43	0x3d468c03	0.04847337
44	0x3df5429b	0.119755946
45	0xbd58cecf	-0.052931603
46	0xbce356aa	-0.027751286
47	0xbd48ce3b	-0.0490248
48	0x3d9150df	0.07095503
49	0x3d9d4cb3	0.07680645
50	0xbc5c59e2	-0.013449164
51	0xbf84f1fc	-1.0386348
52	0x3f381e51	0.7192126
53	0x3da4aef8	0.08041185
54	0x3c83cece	0.016089823
55	0xbefe3b53	-0.49654636
56	0x3f301578	0.6878276
57	0xbdc09d67	-0.09405022
58	0x3daa337e	0.083106026
59	0xbd00ad14	-0.03141506
60	0xbb97ecbf	-0.0046363766
61	0x3dabc656	0.08387439
62	0x3d9b49cf	0.07582437
63	0xbd646cf6	-0.055767976
64	0x3e0ef996	0.13962397
65	0x3cbaa791	0.02278498
66	0xbd9c0f53	-0.0762011
67	0xc0d46967	-6.6378665
68	0x3dae9ca2	0.08525969
69	0x3dc779da	0.09740038
70	0x3beb4289	0.0071795625
71	0xbdfc9d76	-0.12334721
72	0xbd48b0cf	-0.048996743
73	0xbfcfde69	-1.6239749
74	0x3d96cb51	0.07362998
75	0x3c97864a	0.018496651
76	0xbc1be4fd	-0.009515044
77	0xbde2d6a2	-0.11076094
78	0xbf01d809	-0.5072027
79	0x3dd8d5d9	0.10587663
80	0xbd644d1a	-0.055737592
81	0x3f5ebc22	0.8700582
82	0x3e1ca36a	0.15296713
83	0xbd72ba82	-0.0592599
84	0xc047253f	-3.1116483
85	0x3ebfd816	0.37469548
86	0xbfd91b97	-1.6961545
87	0xbf08d6e6	-0.5345291
88	0xbda32955	-0.07966868
89	0xbc49377e	-0.012281297
90	0xbe03d124	-0.1287275
91	0x3db568c9	0.08857877
92	0xbc1881e6	-0.009308314
93	0xbf9af320	-1.2105446
94	0x3e01fb3a	0.12693492
95	0xbccd98d2	-0.025097284
96	0x3bbfc1a9	0.0058519435
97	0xbf838eef	-1.0277995
98	0x3d127522	0.035756238
99	0x3f631a14	0.8871167
100	0x3f0b53a0	0.54424477
101	0x3cb5ea06	0.022206318
102	0x3d13f0c3	0.03611828
103	0xbe074b00	-0.13212204
104	0xbd0d39bc	-0.034478888
105	0x3d7ca3e7	0.061679747
106	0xbfbd8181	-1.4805146
107	0x3d5e75be	0.054311506
108	0x3f297d3a	0.66206706
109	0xbe26483a	-0.1623849
110	0x3c936f3d	0.017997378
111	0xbd1db7d7	-0.0385054
112	0x3dd5eedb	0.10445949
113	0xbf013cfc	-0.5048368
114	0xbf6b3341	-0.9187508
115	0x3da72fb0	0.081633925
116	0xbd37274a	-0.044715203
117	0x3b1c23c6	0.0023825034
118	0xbda9c03f	-0.08288621
119	0xbdf2517e	-0.1183195
120	0xbdf2feb3	-0.11864986
121	0x3f939d1c	1.1532321
122	0xbd21048f	-0.039310988
123	0xbf08d2a7	-0.5344643
124	0xbd46fcbc	-0.04858087
125	0x3d33a41a	0.04385767
126	0x3d089da9	0.03335348
127	0x3f547de2	0.8300458
128	0xbe8bc2a8	-0.27296948
129	0xbc4d5f8e	-0.012534989
130	0x3d6fd264	0.058550254
131	0x3f07dc2d	0.53070337
132	0x3f1275a0	0.5721073
133	0x3b8edf46	0.0043601124
134	0xbcd14975	-0.025547722
135	0xbf870e31	-1.0551206
136	0x3d9e7d7a	0.077387765
137	0xbf94b29b	-1.1617006
138	0xbda32726	-0.07966451
139	0x3d1bbbb2	0.038020797
140	0x3e082fb9	0.13299455
141	0x3d87a02e	0.06622349
142	0x3f4c4fb1	0.798091
143	0xbd8843f6	-0.066535875
144	0x3d470889	0.048592124
145	0x3e9bf823	0.3046275
146	0x3cd6cacf	0.026219754
147	0x3f3a3967	0.7274384
148	0xbf40aad3	-0.7526066
149	0x3d8d886b	0.06910785
150	0xbefbf2db	-0.49208722
151	0xbd3f73e7	-0.046741392
152	0x3cb36bab	0.021901926
153	0xbff57583	-1.9176487
154	0xbbb9d0e2	-0.0056706527
155	0x3f172dab	0.5905406
156	0xbf12277a	-0.57091486
157	0x3f749ec8	0.9555478
158	0x3f5f2928	0.87172174
159	0xbde03420	-0.10947442
160	0x3caddf59	0.021224665
161	0x398d99c4	0.0002700818
162	0xbbd95665	-0.0066326135
163	0x3ed98754	0.4248606
164	0xbf33cdfd	-0.7023619
165	0x4083a990	4.1144485
166	0x3d63d992	0.055627413
167	0x3e8a5957	0.27021286
168	0xbc4569e2	-0.01204917
169	0x3da09bd0	0.07842219
170	0xbf392ae9	-0.723311
171	0xbe06f944	-0.13181025
172	0xbe042719	-0.1290554
173	0xbe056b85	-0.13029297
174	0x3c6510ac	0.013981026
175	0xbdf40729	-0.11915428
176	0xbe49d7ba	-0.197112
177	0xbda5ebaf	-0.08101594
178	0xbe189d5b	-0.14903776
179	0xbf06ae77	-0.5260996
180	0x3f3ba950	0.73305225
181	0x3d83d97a	0.06437965
182	0x3d84ec03	0.06490328
183	0xbef3aa33	-0.4759079
184	0x3f1c0c1b	0.6095597
185	0x3d1a35c8	0.037648946
186	0x3bfea953	0.00777165
187	0x3ce2158d	0.027598167
188	0x3cb21c50	0.021742016
189	0xbc8f9a43	-0.017529612
190	0xbd477654	-0.04869683
191	0xbcd6e558	-0.026232406
192	0x3e03473b	0.12820141
193	0x3de9404d	0.113892175
194	0x3d61cfd3	0.055129837
195	0xc0d96509	-6.7935834
196	0xbd433c2f	-0.047664817
197	0x3d3159d9	0.043298576
198	0x3c25232f	0.010079189
199	0xbdd7e830	-0.10542333
200	0x3d913a6a	0.0709122
201	0xbfbf37a4	-1.4938855
202	0xbdad131a	-0.08450909
203	0x3c470734	0.012147713
204	0x3be1936d	0.0068840296
205	0xbea15235	-0.3150803
206	0xbf1284f7	-0.5723414
207	0xbe1d14a1	-0.153399
208	0xbd8f8bfa	-0.0700912
209	0x3f5c54f5	0.86067134
210	0xbdefb1ed	-0.117038585
211	0xbdd3e08d	-0.10345564
212	0xc06b2a45	-3.674455
213	0x3e86797f	0.2626457
214	0xc0512053	-3.267598
215	0xbeb93a24	-0.3617717
216	0x3c7a5a42	0.015280308
217	0xbd3fb71c	-0.046805486
218	0xbdbe84ca	-0.09302671
219	0xbe293eba	-0.16527835
220	0x3bf7c8bf	0.0075617726
221	0x402e13c5	2.7199566
222	0xbb4ddd18	-0.00314123
223	0xbc83c14b	-0.01608338
224	0x3ded9b2c	0.11601862
225	0xbf78c27a	-0.9717175
226	0x39337350	0.00017113728
227	0x3f45e5b3	0.7730362
228	0x3f12e828	0.5738549
229	0x3d494a42	0.049143083
230	0xbcfabce5	-0.03060765
231	0x3bf6434e	0.0075153476
232	0x3e255d72	0.16148928
233	0xc023106f	-2.547878
234	0xc004df3a	-2.0761247
235	0xbe5051f7	-0.20343767
236	0x3f3643bc	0.71197104
237	0xbf12cbd7	-0.57342285
238	0x3d26a034	0.040680125
239	0x3db85562	0.090006605
240	0xbe031682	-0.12801555
241	0xbf1d9f17	-0.61570877
242	0xc008c39c	-2.136939
243	0x3d95602d	0.07293735
244	0x3d599b68	0.053126723
245	0x3d0c3977	0.03423449
246	0xbd07a14f	-0.03311282
247	0x3d4348b1	0.047676746
248	0xbe442fb5	-0.19158824
249	0x3f7edbcb	0.9955413
250	0xbb69095c	-0.0035558557
251	0x403ac297	2.9181268
252	0xbd37ae45	-0.04484393
253	0xbd906ad6	-0.07051627
254	0xbdeda15a	-0.11603041
255	0x3f53541b	0.8255021

fc3.bias f4 [3]
0	0x3f25b2d5	0.64726
1	0x3f29bba7	0.6630196
2	0x3f29a213	0.6626293
