Day03/pong_model_v1.3.pth (torch, 4845 bytes, 4 tensors)

fc1.weight f4 [64, 5]
-0.078465745 0.2966019 0.20553046 0.0019065655 0.78069985 -0.23809358 -0.36525267 -0.08253558
-0.09579231 -0.19346355 -0.059161697 0.24677232 0.3719431 0.0816033 -0.7462467 -0.12938045
-0.61803365 -0.30362648 -0.11697645 -0.6590159 -0.73334473 0.026871126 0.671332 -0.055997074
-0.4757293 -0.45893103 -0.6498231 0.45275715 0.20435154 -2.7174675 0.09121999 0.35321772
0.38672596 0.11760491 -0.97631633 0.22254233 -0.35790202 0.48175722 -0.16141489 0.27424535
-0.31947497 -0.1534717 -0.13064237 -0.004207864 0.011709984 -0.0994067 0.19455509 -0.36431405
-0.10670908 0.16928978 0.37845024 -0.40064237 -0.33043304 1.2488863 -3.1478333 0.41454917
0.18217576 0.00026367858 -0.10632788 1.3587335 0.48821178 -0.0018870968 -0.1679103 0.3052515
-0.21182719 -0.35670137 -0.040712714 0.3315014 -1.6927366 -2.6823242 0.26788607 -0.3960875
-0.28282595 -0.9360532 -3.3894794 -0.35951802 -0.39327145 0.40270153 -0.6588378 -2.0755
-0.34959823 0.24376555 0.30683845 -0.063370995 0.49967524 -0.38708338 -0.30451873 0.08200233
-0.48415807 -0.024246193 -0.3115084 -0.53262895 0.30240294 -0.13576579 -2.9694147 0.3767636
-0.31619957 0.30310893 0.038062535 0.20821202 0.4254154 -0.40572506 -0.44170123 -0.47172004
-1.3734086 0.3410586 0.19166829 -0.3721919 0.442355 0.2679332 -0.8260065 0.05038568
0.110275425 -0.5667037 0.2653977 0.37877095 0.33666393 -0.34635845 0.43894696 0.7947992
0.50092655 0.5822496 -0.5382805 0.42591834 0.39307866 0.26042777 -0.030078832 -0.27603617
0.5799864 1.1914492 -0.066366084 -0.29793996 -0.2801947 0.59827286 -0.49442 -0.71783024
-0.26643834 0.0011098379 0.45181966 -0.84792006 -0.34096244 -0.17591372 0.30936417 -1.0379845
-4.057223 0.42401507 0.37828755 0.36006954 0.1983408 -0.079499945 -0.4060355 -0.2508501
0.21978557 -0.006270869 -0.16289333 0.24180439 -0.39120507 -0.21628863 0.7931068 -2.7001648
0.5837041 0.06274983 -0.12763488 0.18789902 -0.15099853 0.23936038 -0.032499164 0.101265974
-0.27187526 0.54966414 0.11046066 0.24481566 0.14642243 -0.1736428 0.36785692 0.28336692
0.31897202 0.11591146 -0.21050224 0.8798491 -0.26047805 -0.2610454 0.30973434 -1.1964567
-3.024207 -0.47173283 0.03360963 0.24358489 0.0718218 0.93872 0.023037767 -0.6027509
0.23079365 -0.12581435 0.7882944 0.12883006 0.26265275 0.03551002 0.06998146 -0.22634569
-0.12048212 -0.26030046 0.16992882 -0.15413931 -3.0566952 -0.1414366 -0.20294824 -0.22548145
-0.47625333 -1.8637084 0.28616592 -0.048961677 -0.13221738 0.2570747 0.28584215 -0.06396815
0.43288016 0.1293198 -0.26735973 -0.29648837 0.10142167 -0.005158077 0.29598433 -0.212481
-0.016876483 0.6687962 -0.17273574 -0.6361704 0.36717057 -1.1707959 0.08364514 0.02556716
0.25448948 -0.58570766 -1.6479653 0.46232063 0.1679041 -0.44531992 0.1862954 0.7394731
0.1659762 -0.09129863 0.17925036 0.43234318 0.042785875 -0.5823917 -0.19025595 0.6044211
0.060515743 -0.034309212 0.003655429 -0.017023345 -0.5016202 -0.36999175 0.56958795 -0.051675845
00000000: a6b2 a0bd 34dc 973e 9476 523e b9e5 f93a
00000010: f2db 473f cece 73be 6602 bbbe 6a08 a9bd
00000020: c22e c4bd 4f1b 46be 8953 72bd e2b1 7c3e
00000030: 536f be3e a21f a73d 060a 3fbf 4f7c 04be
00000040: 7437 1ebf ee74 9bbe 5991 efbd 44b5 28bf
00000050: 7bbc 3bbf d620 dc3c 6adc 2b3f 305d 65bd
00000060: ca92 f3be 02f9 eabe cf5a 26bf c9cf e73e
00000070: 8841 513e fdea 2dc0 8cd1 ba3d f4d8 b43e
00000080: f200 c63e d8da f03d deef 79bf 23e2 633e
00000090: ef3e b7be e2a8 f63e f249 25be e369 8c3e
000000a0: 3992 a3be af27 1dbe 1dc7 05be 1fe2 89bb
000000b0: 3cdb 3f3c bd95 cbbd 7339 473e 5f87 babe
000000c0: 4a8a dabd 4d5a 2d3e 3bc4 c13e ff20 cdbe
000000d0: 852e a9be 82db 9f3f 1a76 49c0 ca3f d43e
000000e0: 488c 3a3e 573e 8a39 6ec2 d9bd fbea ad3f
000000f0: e5f6 f93e 7658 f7ba adf0 2bbe ed49 9c3e
00000100: 3ae9 58be 90a1 b6be 60c2 26bd 8dba a93e
00000110: 98ab d8bf 33ab 2bc0 5d28 893e fbcb cabe
00000120: 90ce 90be 2fa1 6fbf 3bed 58c0 bf12 b8be
00000130: e05a c9be e52e ce3e 98a9 28bf fed4 04c0
00000140: 8afe b2be ad9d 793e ee19 9d3e a7c8 81bd
00000150: 6fd5 ff3e cb2f c6be e1e9 9bbe d6f0 a73d
00000160: 91e3 f7be f49f c6bc 077e 9fbe 5f5a 08bf
00000170: 8fd4 9a3e 3006 0bbe e40a 3ec0 29e7 c03e
00000180: e9e4 a1be 1831 9b3e 76e7 1b3d 8835 553e
00000190: 0cd0 d93e 32bb cfbe aa26 e2be 4a85 f1be
000001a0: dacb afbf 3c9f ae3e b144 443e f08f bebe
000001b0: 5b7c e23e 8a2e 893e 2975 53bf 3761 4e3d
000001c0: 15d8 e13d 7e13 11bf 35e2 873e 44ee c13e
000001d0: 375f ac3e e555 b1be a8bd e03e f677 4b3f
000001e0: b93c 003f 4f0e 153f c0cc 09bf f811 da3e
000001f0: 9b41 c93e ca56 853e e267 f6bc 9d54 8dbe
00000200: fd79 143f 6881 983f f1ea 87bd 968b 98be
00000210: ae75 8fbe 6928 193f 9e24 fdbe b9c3 37bf
00000220: 9b6a 88be fb77 913a e854 e73e 4a11 59bf
00000230: a192 aebe ba22 34be fb64 9e3e addc 84bf
00000240: c5d4 81c0 8118 d93e e8ae c13e 095b b83e
00000250: da19 4b3e ded0 a2bd e3e3 cfbe 6d6f 80be
00000260: 780f 613e dd7b cdbb 82cd 26be 929b 773e
00000270: 084c c8be c47a 5dbe 0c09 4b3f 80cf 2cc0
00000280: a26d 153f fc82 803d b8b2 02be 9a68 403e
00000290: 5c9f 1abe e31a 753e d81d 05bd 8964 cf3d
000002a0: 3c33 8bbe cab6 0c3f 3339 e23d f5b0 7a3e
000002b0: c3ef 153e 6bcf 31be be57 bc3e 7815 913e
000002c0: 4d50 a33e fd62 ed3d e68d 57be ca3d 613f
000002d0: 615d 85be bea7 85be 8095 9e3e 7e25 99bf
000002e0: 9c8c 41c0 f786 f1be 40aa 093d 516e 793e
000002f0: 4f17 933d f44f 703f b3b9 bc3c e24d 1abf
00000300: 2c55 6c3e 7ad5 00be a9cd 493f 07ec 033e
00000310: 6c7a 863e f472 113d 7152 8f3d 2ac7 67be
00000320: 54bf f6bd 1a46 85be d201 2e3e b2d6 1dbe
00000330: e5a0 43c0 c2d4 10be aad1 4fbe 9ce4 66be
00000340: 7ad7 f3be ff8d eebf 5784 923e 0a8c 48bd
00000350: fe63 07be 4c9f 833e e759 923e bc01 83bd
00000360: 78a2 dd3e 696c 043e 60e3 88be 53cd 97be
00000370: 2ab6 cf3d 1605 a9bb 428b 973e 9f94 59be
00000380: 8d40 8abc 3a36 2b3f a3e1 30be 10dc 22bf
00000390: c8fd bb3e a4dc 95bf 254e ab3d 3972 d13c
000003a0: 724c 823e f0f0 15bf 87f0 d2bf 4ab5 ec3e
000003b0: 0def 2b3e f900 e4be 39c4 3e3e 1c4e 3d3f
000003c0: aaf5 293e c7fa babd 688d 373e 165c dd3e
000003d0: 3e40 2f3d 9f17 15bf 75d2 42be 57bb 1a3f
000003e0: 5bdf 773d d187 0cbd ec8f 6f3b 8b74 8bbc
000003f0: 2e6a 00bf 8f6f bdbe 84d0 113f 0daa 53bd

fc1.bias f4 [64]
0.41525456 -0.3074391 -0.008085181 -0.1867346 0.01831809 0.5328147 -0.38422063 0.108376
-0.26954508 0.54655516 0.41543913 -0.25148052 0.04672324 0.10167649 0.3402437 0.39776844
0.33458978 -0.16644393 0.44630247 0.1969645 0.46568596 -0.17770891 -0.05103992 -0.24988882
-0.55178714 0.10302349 -0.32161736 -0.08956298 0.10907228 0.19169852 -0.28338704 0.40559444
-0.023653671 0.23558992 0.4465374 -0.45167333 0.27548113 0.24077979 0.17122346 0.32227585
0.26720154 0.3200501 0.47042942 0.42143273 0.41235965 0.23284067 -0.045132447 -0.051626496
0.23668933 -0.07493599 0.27510852 0.05407972 0.1262925 0.16179973 -0.019642456 -0.58025736
0.05310447 0.2753075 -0.3508986 0.39735642 0.045238294 0.108637206 -0.042884067 0.21480995
00000000: 3f9c d43e a868 9dbe b577 04bc 5b37 3fbe
00000010: d20f 963c 8b66 083f 91b8 c4be 3cf4 dd3d
00000020: d001 8abe 0aeb 0b3f 70b4 d43e 0ec2 80be
00000030: de60 3f3d c33b d03d 6c34 ae3e 4ea8 cb3e
00000040: 5a4f ab3e 4770 2abe c281 e43e 10b1 493e
00000050: 646e ee3e 53f9 35be 3c0f 51bd dbe2 7fbe
00000060: ec41 0dbf fbfd d23d 08ab a4be cc6c b7bd
00000070: 4a61 df3d 9e4c 443e 1b18 91be 13aa cf3e
00000080: 58c5 c1bc 7c3e 713e 8da0 e43e ba41 e7be
00000090: dd0b 8d3e fa8e 763e 3455 2f3e 5701 a53e
000000a0: a4ce 883e 9bdd a33e 20dc f03e 08c6 d73e
000000b0: ce20 d33e c96d 6e3e cddc 38bd 4e76 53bd
000000c0: b05e 723e 0a78 99bd 06db 8c3e b282 5d3d
000000d0: d252 013e d4ae 253e 37e9 a0bc bf8b 14bf
000000e0: 1384 593d 1bf5 8c3e fba8 b3be 4d72 cb3e
000000f0: ca4b 393d 2f7d de3d 34a7 2fbd 24f7 5b3e

fc2.weight f4 [3, 64]
0.1256156 -0.04297462 -0.14403433 -0.58967644 -0.84376454 1.0337472 -0.33964753 0.36778063
0.019868553 0.0877579 -0.89967364 0.13991849 0.27604672 -1.0829303 1.3249282 -1.0567274
0.038463034 -0.31873775 0.8377288 0.1898094 -0.8554005 -0.6960487 0.71253794 0.21872893
-1.7306049 0.21817428 -0.63617337 -0.13437767 1.6201034 -0.038428575 -0.03641792 -0.7189325
0.13343053 -0.016765038 -0.022490187 -0.025850022 -0.97964996 0.082481146 -0.49558297 0.119503096
-0.38696736 0.015915632 0.07269639 0.013278639 0.1584371 -0.9584774 -0.48433846 0.30479038
0.013022359 0.49404743 0.33156487 0.27002418 -0.5303283 0.7776731 -0.09788267 0.45128995
1.3302798 0.061045345 -0.17701918 0.18140069 0.15156034 -0.45446754 -0.33042362 0.07444679
0.04393288 0.11069921 -0.12266013 -0.6673966 -0.94529575 0.9895759 -0.28951088 0.38178968
0.10628615 0.13387258 -0.8085151 0.21732539 0.10920385 -0.81937873 1.0902892 -1.0962726
0.095627524 -0.36872074 0.90019304 0.07192251 -0.71181023 -0.74998504 1.0272564 0.24384186
-1.6796404 0.33087623 -0.62676233 -0.6224652 1.4701543 0.13221273 -0.08974499 -0.55096483
0.088567905 0.1528192 0.12049914 0.051009603 -0.8285467 0.095382035 -0.5605049 -0.0131951915
-0.40304673 -0.18209268 0.091551036 -0.04203098 -0.09336414 -0.9633086 -0.48235425 0.35584673
0.1833983 0.4715527 0.34382543 0.36127856 -0.50088924 0.7692114 0.07671426 0.278972
1.3380442 0.121415205 -0.02136189 0.15200578 0.13913786 -0.41213137 -0.31748536 -0.073448576
0.046325497 0.067312926 -0.057812374 -0.45763844 -1.1868858 1.5149611 -0.122261725 0.37893936
-0.12179299 0.2318283 -1.3373309 0.09133086 0.09051248 -1.3517609 1.3725301 -1.7265186
-0.09574424 -0.14782327 1.4344498 0.06338849 -0.709717 -0.6656526 0.07545848 0.33867362
-2.3244007 0.18111506 -0.26674426 -0.9735229 1.8081372 0.07000129 0.035677373 -0.7413942
0.21612729 0.1777254 0.07314756 -0.22411145 -1.1492978 0.11227196 -0.5676355 0.061641235
-0.61453074 -0.18534692 0.077562936 0.07682232 0.07763913 -1.1224918 -0.23516099 0.38867664
-0.07250787 0.9233042 0.28536868 0.18447025 -0.76602864 1.3700227 0.11065006 0.699742
1.3757062 0.061683618 -0.17794523 -0.013069819 0.15936133 -0.7297009 -0.36136302 0.1506419
00000000: 60a1 003e 2806 30bd bc7d 13be 09f5 16bf
00000010: f400 58bf d451 843f 48e6 adbe be4d bc3e
00000020: 60c3 a23c 6aba b33d 0351 66bf cb46 0f3e
00000030: ff55 8d3e 769d 8abf 3f97 a93f d842 87bf
00000040: 6a8b 1d3d 9831 a3be 6575 563f 655d 423e
00000050: 87fb 5abf 3f30 32bf e368 363f 7afa 5f3e
00000060: 7684 ddbf 1469 5f3e 42dc 22bf 4d9a 09be
00000070: 8c5f cf3f 4867 1dbd f52a 15bd f60b 38bf
00000080: 03a2 083e d556 89bc 573d b8bc 6dc3 d3bc
00000090: 57ca 7abf e0eb a83d 0dbd fdbe 0abe f43d
000000a0: 9620 c6be 8061 823c d8e1 943d a68e 593c
000000b0: 563d 223e c65e 75bf 36fb f7be 7c0d 9c3e
000000c0: bc5b 553c c9f3 fc3e dfc2 a93e 9c40 8a3e
000000d0: 98c3 07bf 9615 473f b676 c8bd 7a0f e73e
000000e0: 9c46 aa3f af0a 7a3d 8444 35be 1ac1 393e
000000f0: a232 1b3e f8af e8be 492d a9be 8f77 983d
00000100: f7f2 333d 44b6 e23d 3c35 fbbd 81da 2abf
00000110: e7fe 71bf d954 7d3f c53a 94be f079 c33e
00000120: 8eac d93d e515 093e d8fa 4ebf 8c8a 5e3e
00000130: 45a6 df3d cec2 51bf 998e 8b3f a952 8cbf
00000140: 5dd8 c33d f7c8 bcbe 0d73 663f 1c4c 933d
00000150: 3239 36bf 05ff 3fbf 237d 833f aeb1 793e
00000160: 75fe d6bf 9c68 a93e 7f73 20bf e159 1fbf
00000170: 042e bc3f c662 073e 39cc b7bd 080c 0dbf
00000180: 1763 b53d a37c 1c3e 41c8 f63d 72ef 503d
00000190: a31b 54bf a857 c33d 407d 0fbf a530 58bc
000001a0: 245c cebe 8176 3abe 1c7f bb3d ad28 2cbd
000001b0: b335 bfbd 649b 76bf 23f7 f6be 8b31 b63e
000001c0: c4cc 3b3e 5b6f f13e e309 b03e 81f9 b83e
000001d0: 473a 00bf 0aeb 443f 5e1c 9d3d 6bd5 8e3e
000001e0: 0845 ab3f 89a8 f83d 21ff aebc 67a7 1b3e
000001f0: 287a 0e3e e202 d3be 718d a2be 356c 96bd
00000200: cebf 3d3d 5cdb 893d abcc 6cbd 964f eabe
00000210: e0eb 97bf 3fea c13f 5b64 fabd 5704 c23e
00000220: 9a6e f9bd 6664 6d3e a92d abbf ad0b bb3d
00000230: 9b5e b93d 8006 adbf 11af af3f 90fe dcbf
00000240: 8e15 c4bd fc5e 17be 0d9c b73f d3d1 813d
00000250: 03b0 35bf 3568 2abf fa89 9a3d a166 ad3e
00000260: fbc2 14c0 3a76 393e b492 88be cc38 79bf
00000270: 0a71 e73f d65c 8f3d 7022 123d 03cc 3dbf
00000280: 7950 5d3e a6fd 353e 63ce 953d 797d 65be
00000290: 311c 93bf d7ee e53d 8f50 11bf 857b 7c3d
000002a0: e351 1dbf 95cb 3dbe 51d9 9e3d 0555 9d3d
000002b0: 4401 9f3d d0ad 8fbf 0bce 70be a000 c73e
000002c0: 027f 94bd aa5d 6c3f d81b 923e c5e5 3c3e
000002d0: 741a 44bf e75c af3f 809c e23d 4b22 333f
000002e0: 2417 b03f f6a7 7c3d 4637 36be cb22 56bc
000002f0: 9e2f 233e aecd 3abf 9304 b9be df41 1a3e

fc2.bias f4 [3]
0.097392954 0.05909513 0.19931115
00000000: f575 c73d bc0d 723d 3918 4c3e
